stress_api/stress_lstm_cpu.pt (torch, 96527 bytes, 8 tensors)

weight_ih_l0 f4 [256, 4]
000000 ad 42 87 bd e4 2d 14 3f 1a 9b 4b be db de 0d be
       -0.06604514 0.57882524 -0.19883385 -0.13854544
000010 ed 62 26 bd 4f bf 67 bd 53 01 04 3e 0b 45 92 bd
       -0.040621687 -0.05657893 0.1289113 -0.07142075
000020 97 e1 7f 3e a4 55 59 3e 14 0f 00 3e 32 e9 14 ba
       0.249884 0.21224076 0.12505752 -0.0005680501
000030 66 22 c0 be 1e fe a2 3d c9 a1 5b bc 61 24 bd 3d
       -0.37526244 0.07958625 -0.013405272 0.09235454
000040 e9 be 05 3f 34 4d d8 be 4b 11 52 bf c4 2b de bd
       0.5224443 -0.422464 -0.82057637 -0.108481914
000050 64 1f 2f 3e 89 b5 d1 3e d4 b6 6a 3e 0c 3d ca 3c
       0.17101818 0.40958813 0.22921306 0.024687313
000060 e7 6e 0b 3f cf 66 88 bd fa 79 cb 3d ae 1e b8 3e
       0.544661 -0.06660234 0.099353746 0.35960907
000070 43 40 c3 3c 77 9b 4c 3e d6 7e fa 3e 19 1d 58 3e
       0.023834353 0.1998118 0.48924893 0.2110485
000080 a2 2e e9 3c bf d9 36 bd 43 65 51 be 56 c4 f0 be
       0.02846462 -0.044641253 -0.20448785 -0.47024792
000090 a8 e1 7d 3e 84 5d 85 be 5f c7 f2 be 85 85 be bd
       0.24793112 -0.2604791 -0.47417733 -0.093028106
0000a0 22 72 0c 3e d9 59 23 be f5 37 38 be ab e4 ca be
       0.13715413 -0.15952243 -0.17990096 -0.39627585
0000b0 95 51 0a 3e bc 5a b1 3e 3d 39 22 be 00 85 f1 be
       0.13507684 0.34639537 -0.15842147 -0.47171783
0000c0 8b 11 0d 3e f4 ef e2 be 80 35 ee be 82 d4 73 bd
       0.13776223 -0.44323695 -0.46525192 -0.059528835
0000d0 11 f7 7d bd 39 70 14 be 47 31 78 be 5f d3 00 bf
       -0.0620032 -0.14495935 -0.24237548 -0.50322527
0000e0 26 b8 f2 3d 75 0d 98 3e 74 34 80 3e a6 a0 3f 3e
       0.1185153 0.29697767 0.2504002 0.18713626
0000f0 48 b2 4f 3e 03 ce a8 be d3 17 a9 bd 8e 77 50 be
       0.20282853 -0.32969674 -0.08256497 -0.20358106
000100 6a 73 62 3e 8a 4c 15 3e c4 75 49 be 20 59 59 bf
       0.2211434 0.14579979 -0.1967383 -0.8490162
000110 4e 6c 7a 3e 88 02 93 3e fd 14 66 3e 0c d7 e4 3d
       0.24455377 0.2871287 0.22468944 0.111738294
000120 a2 d9 ef bc ef 5a 76 3e a9 90 53 3c 3d e5 c2 3e
       -0.02927858 0.24058126 0.012912908 0.3806552
000130 7f 8c b8 be 61 87 58 be ea fb 85 3e d7 43 c5 be
       -0.3604469 -0.21145393 0.26168758 -0.3852832
000140 42 4d 38 bf 59 4b 8b 3e 3c ec 8a 3e 7c a5 06 be
       -0.71992886 0.27205923 0.27133358 -0.13149065
000150 81 b0 b0 bd 29 7a 1d be 94 ad e9 be 08 4a 2c 3f
       -0.086274154 -0.15378632 -0.45640242 0.6730046
000160 1a d4 37 be df f7 2c 3f 3f 2c 16 be e4 06 70 be
       -0.17952004 0.6756572 -0.14665316 -0.23440129
000170 3a b6 11 3f c5 80 89 3e 03 32 9c bd 65 c1 93 3c
       0.5691868 0.26856056 -0.076267265 0.018036554
000180 1e ca f7 bd b3 1f 06 bd a2 ec ed 3d 4f 9a 3b 3e
       -0.12099098 -0.032745074 0.116174 0.18320583
000190 49 0e 47 be 88 eb 76 be f0 16 9a 3d 44 f3 d1 be
       -0.19439043 -0.24113286 0.07523906 -0.4100591
0001a0 8d cc c5 3e 2c cc 58 be c1 80 83 be 90 21 08 3c
       0.38632622 -0.21171635 -0.2568417 0.008308783
0001b0 f9 6d bd 3e 2e ca 91 3e 0d 27 83 bd d8 9d ba be
       0.36997965 0.28474563 -0.06403933 -0.3644855
0001c0 7b 1f 9e 3c 8a 14 45 3e 1f cb bb 3e db 17 43 3e
       0.01930212 0.19246116 0.36678407 0.19052069
0001d0 13 ce 04 3f 5a 42 d6 be 92 cf 85 bd 2a 89 12 3e
       0.51876944 -0.41847497 -0.065337315 0.14310136
0001e0 ea ce 09 3e a6 e2 ab bc ab c3 5c be 02 be b3 be
       0.13457838 -0.020982098 -0.21559016 -0.35105902
0001f0 96 c4 b1 3c 26 cc aa be b9 42 0f bf 54 59 52 bd
       0.021700185 -0.33358878 -0.55961186 -0.05135472
000200 6b cd e2 3e 08 e2 e1 bd 7b 00 2c 3d 33 bb 9d 3f
       0.44297346 -0.1102944 0.041992646 1.2322754
000210 03 b3 ac 3e 47 04 3b 3d ce d1 05 3d 4b 1a 52 bd
       0.33730325 0.045658376 0.03267079 -0.051294606
000220 11 9b 1d bd c3 45 d8 3d 2a c9 4a 3f 92 14 67 3e
       -0.03847796 0.10560181 0.792132 0.2256644
000230 d5 03 00 3e 83 5d eb 3e 32 e7 23 be 8d 85 53 3e
       0.12501462 0.4596978 -0.16006163 0.20656414
000240 64 94 1b 3e 93 39 a6 3e c8 22 89 3e 83 3a 99 3e
       0.15193325 0.324658 0.26784348 0.29927453
000250 9d 71 d1 3e c6 43 a8 3e 45 64 b9 3e 79 fe 89 3d
       0.40906993 0.32864207 0.36209312 0.0673799
000260 d3 8b 87 be d3 6e 26 3f 57 83 b6 be cd 2d c9 3c
       -0.26473865 0.65012854 -0.3564708 0.024557972
000270 45 3d bd 3d 87 8b 3f bd ca 4b 04 3e 4e 63 00 bd
       0.09240202 -0.046763923 0.12919536 -0.031344704
000280 c7 1f b0 3e 23 e9 96 be 58 03 fb be 46 4a ea bd
       0.34399244 -0.29474744 -0.4902599 -0.11439948
000290 b5 90 ab 3e 50 79 40 3e 66 51 1b 3f 34 f2 06 bc
       0.3350884 0.18796277 0.6067108 -0.008236457
0002a0 fd 59 b6 be 11 fd 17 3f 39 91 1b 3f ab 5f b8 3d
       -0.3561553 0.59370524 0.6076847 0.09002622
0002b0 07 7b 1f 3e 94 6e 95 bd 57 5b 09 3e 54 07 1a bf
       0.15574275 -0.07296482 0.1341375 -0.6016743
0002c0 be 1a 40 3e 73 72 8f be 53 c9 ff 3d 0a ae cd 3e
       0.18760201 -0.28017005 0.124895714 0.40171844
0002d0 0a 27 44 bd 03 8f 84 bb 50 a8 c2 be b0 9e a2 3e
       -0.047888793 -0.0040453686 -0.38019037 0.31761694
0002e0 e0 50 fa 3d dc 8a 2e be 03 b2 1c be 4c 72 96 be
       0.12222457 -0.17045158 -0.15302281 -0.29384077
0002f0 03 63 a5 bd c8 38 a9 be 4b 9f ca bd cf 3b fa bd
       -0.080755256 -0.33051133 -0.09893664 -0.12218439
000300 4e 32 fa 3d 7c 50 8d bd 0b 1a 34 bd 5b e3 f2 3e
       0.12216626 -0.06900117 -0.04397015 0.47439083
000310 39 5a 70 3e 07 24 42 be dd e4 99 be 65 63 86 bd
       0.23471917 -0.18959056 -0.3005742 -0.06561927
000320 6b c9 8f 3e a9 8e 66 3e 20 83 82 3d f8 c4 ed be
       0.28083357 0.22515358 0.06372666 -0.46439338
000330 7d bd 09 3d d7 de fe bc dd ed db be 58 df 77 bd
       0.033627976 -0.031112118 -0.42954913 -0.06051573
000340 21 a3 c8 3e b6 95 a7 3e a6 ac 90 be 70 42 7d 3e
       0.39186957 0.32731408 -0.2825672 0.24732375
000350 99 52 0e be 1c 8a 59 be 2f 5a 1f bd 85 66 21 bd
       -0.13898696 -0.21244091 -0.038904365 -0.03940441
000360 23 7c 2a 3e 8b 54 a5 bd 77 9a 84 bd 06 fd 27 bd
       0.16648917 -0.08072766 -0.06474774 -0.041012786
000370 2c d9 59 3e 4b fa 66 3e 05 4b 9a bd a7 90 25 bf
       0.21274251 0.22556417 -0.0753384 -0.64673847
000380 5c 62 40 3e 92 81 e6 bc 55 95 3c 3e 20 a1 aa be
       0.18787521 -0.028137956 0.1841634 -0.33326054
000390 eb 34 26 3e 04 18 92 3e fd f0 72 3e e2 c5 26 bf
       0.16231124 0.28533947 0.23724742 -0.65145695
0003a0 14 a2 45 be f6 69 a1 3c c6 60 58 3d 8b 15 b7 3e
       -0.19300109 0.019703846 0.052826665 0.35758623
0003b0 73 88 91 3e 3f 2c b8 3e 4c 2e 64 3f 9e 92 9b 3d
       0.28424415 0.35971257 0.89133143 0.075963244
0003c0 01 2b c7 bd 34 ec b4 3e a1 44 be 3c 9b 21 f9 be
       -0.09724999 0.3533646 0.023226084 -0.4865845
0003d0 ea 8e fc bd 76 f6 42 3c c6 c6 a5 bd 87 39 07 be
       -0.12331946 0.011899581 -0.08094554 -0.13205539
0003e0 5c 14 aa be c5 d9 91 3e 21 f7 a7 3e 08 42 05 3f
       -0.33218658 0.28486457 0.32805732 0.5205388
0003f0 1d a2 03 3f ea 27 c8 bd d3 8a 38 3e 60 c2 d1 3e
       0.5141924 -0.09773238 0.18021707 0.4096861

weight_hh_l0 f4 [256, 64]
000000 49 04 e7 bd 71 72 17 3e 7c 77 99 bd ca 39 02 3f
       -0.11280114 0.1478975 -0.07493493 0.5086943
000010 a9 44 fc 3d d8 2f e9 3e 8e a1 13 bd ba f1 17 3d
       0.123177834 0.45544314 -0.036042742 0.037095763
000020 f6 03 1e be 13 ac 47 bc 1e 56 19 be ab a8 11 3d
       -0.15431198 -0.012187022 -0.14974257 0.035561245
000030 4e 6a bc be 80 d2 64 3d 22 90 14 3e a1 f5 0a be
       -0.36799854 0.05586481 0.14508107 -0.13570262
000040 12 d9 c8 be c3 a6 5b be a2 49 73 3e 71 97 cd be
       -0.39228112 -0.21450333 0.23758557 -0.40154603
000050 6c 7e 42 be e1 0f 89 3d 99 93 22 3c a8 ea a7 3e
       -0.18993539 0.06692482 0.009922885 0.32796216
000060 97 75 c1 3e 50 cf 1f be c0 94 4d 3e 81 46 a6 bd
       0.37785026 -0.15606427 0.20076275 -0.08118916
000070 f9 86 c3 bd cf 6e c2 be 15 b7 0b 3f 88 63 9f be
       -0.09547228 -0.37975165 0.54576236 -0.31130624
000080 95 2d 97 bb b4 2f a9 3d 13 e2 f5 3d ef c6 28 3e
       -0.004613588 0.08261052 0.12006011 0.16482137
000090 59 e1 df 3d 5f 5d 6c 3e 88 f7 ac 3d 5c 61 7b 3d
       0.109316535 0.23082493 0.0844565 0.061372146
0000a0 49 94 0f be 22 ce 2c be 0b fd 83 bd 50 c1 a8 be
       -0.1402141 -0.16875508 -0.064447485 -0.32959986
0000b0 14 4e ae be d1 09 a1 3d c8 cd 7a 3e 1b 9b 09 be
       -0.34043944 0.078632005 0.24492562 -0.13438074
0000c0 76 9b ec bd b3 6d 41 3d 07 c7 49 bd 7f 52 37 bc
       -0.11553089 0.047223758 -0.049262073 -0.011189102
0000d0 b7 55 f1 3d c2 06 9b be c1 0b fc bd a4 d7 d6 be
       0.11783927 -0.30278593 -0.123069294 -0.41961396
0000e0 a6 47 16 3e 92 0d 54 bc 1b 82 4f be 27 65 a6 be
       0.14675769 -0.012942689 -0.20264475 -0.32499048
0000f0 40 f8 40 be 2f c7 6a bb 8a 19 8a 3e f7 fc 19 3b
       -0.188447 -0.003582429 0.2697261 0.0023496726
000100 e4 ef 9f 3e f7 37 88 3d 83 07 2e be 14 29 65 3d
       0.3123771 0.066512994 -0.16995053 0.05594738
000110 6a c9 0a bc 21 60 8a 3e 66 5b f4 bd 2f 3c a2 3e
       -0.008470872 0.27026466 -0.11931495 0.3168654
000120 a2 1e 8c bc 37 aa b6 be e9 e8 91 bd 50 91 79 be
       -0.01710445 -0.3567674 -0.07124502 -0.24371839
000130 20 9b aa be 6a e9 55 3e d0 3f 10 be e3 d1 52 3e
       -0.33321476 0.20889822 -0.14086843 0.20587878
000140 da 93 63 be aa 75 d5 3c db e8 dd 3d 6e c5 0f 3c
       -0.2222437 0.026057083 0.10835429 0.008775098
000150 d9 b1 d3 bd 17 c9 ab 3e 10 f2 25 be 45 e5 e4 3d
       -0.10336656 0.33551857 -0.16205621 0.11176542
000160 fa c2 00 3e ac e0 86 be 77 0d 8f 3e 79 33 e2 be
       0.12574378 -0.26343286 0.2793996 -0.44179896
000170 07 38 91 be a9 30 ea be 75 75 03 3e 64 85 aa be
       -0.28363058 -0.4574025 0.12837775 -0.33304894
000180 cc d3 ba 3d 60 62 d8 3e 06 c5 34 3e 16 4a 17 3e
       0.09122428 0.42262554 0.17653283 0.14774355
000190 e7 1c be 3c 5c d0 0d 3e d4 c5 0b 3f cd 64 53 bc
       0.023207141 0.13849014 0.54598737 -0.012902451
0001a0 c6 ec 66 3e a1 1d c3 bd 21 04 fa bd 4d 2e 6b 3d
       0.2255126 -0.09527136 -0.12207819 0.057417203
0001b0 8e 08 89 bd 33 63 75 3d f8 ce 7b 3e 34 0d f1 3d
       -0.06691085 0.059909057 0.24590671 0.117700964
0001c0 0d de 88 be ca 35 86 3e 97 54 6e be 88 2b 6d be
       -0.2673191 0.26212913 -0.23274456 -0.23161137
0001d0 6a 00 78 bd 0e a7 85 bd f2 9e 8d bd 93 76 51 3e
       -0.06054727 -0.06526004 -0.06915082 0.20455389
0001e0 17 95 3b be 48 2d 87 3e f3 49 47 be 29 5e c4 3e
       -0.18318592 0.26401734 -0.19461803 0.38353088
0001f0 ed d0 59 3e 85 bc 40 be b2 48 48 3d 20 a5 65 bd
       0.21271105 -0.18821914 0.048897453 -0.05606568
000200 fe 8d de 3d ed c7 87 be 5a cb 1a 3e 92 15 69 3e
       0.108669266 -0.2651972 0.15116635 0.22762135
000210 f1 ee 15 3e 9f 0b 34 be 07 11 7d be 3f 69 ce 3c
       0.1464193 -0.17582558 -0.24713527 0.02519667
000220 bb 44 16 be 25 31 91 bd 59 1b 4c 3d a1 16 88 3d
       -0.14674656 -0.07089452 0.04983077 0.06644941
000230 90 e1 0c be 45 a3 8d 3d c8 2c ca bd 31 e8 44 be
       -0.1375792 0.06915907 -0.098718226 -0.19229199
000240 76 56 29 bd e1 21 c2 bd fc 54 ba 3b 33 71 96 bb
       -0.04134222 -0.09479118 0.0056864005 -0.004591131
000250 75 f0 9d 3b ce 3d 6b be 3b b1 25 bd 0a 09 37 3d
       0.0048199245 -0.22972795 -0.040452223 0.044686355
000260 7f 9e 4b 3e 87 ab fc bd f4 f9 76 3e 61 a7 2b 3d
       0.1988468 -0.12337404 0.24118787 0.04190767
000270 36 80 ee bd 5d 9c bf be b2 81 ab bd 6d 58 71 bd
       -0.11645548 -0.37423983 -0.08374347 -0.05892222
000280 41 53 10 be 44 78 0c bd 03 fe c9 3e fc d1 a4 bb
       -0.14094259 -0.03429438 0.39451608 -0.005029915
000290 7d 8b 85 3d d9 da aa 3e aa 66 d7 3c 06 a3 13 3e
       0.06520746 0.33370093 0.026294071 0.14417657
0002a0 a2 4b 31 3e 3f ef 9b 3d 3e 40 c0 bc d4 65 9f bd
       0.17314008 0.07613992 -0.023468133 -0.07783094
0002b0 c5 f7 46 be 75 52 e8 bd 3d 15 80 be 0b 38 58 bd
       -0.19430454 -0.113438524 -0.25016204 -0.05278782
0002c0 75 a3 34 3d 4a bb 03 3c d3 ab d9 ba 7e 1e 4a be
       0.044101197 0.008040259 -0.0016606994 -0.19738194
0002d0 c9 b3 31 3e 36 b7 3a be 0a e9 c8 3d 13 8a 84 3d
       0.17353739 -0.18233952 0.09810074 0.06471648
0002e0 9a c8 51 bd bd fb 2d 3e fe a8 03 3b 45 24 52 bd
       -0.0512167 0.16990562 0.002008974 -0.05130412
0002f0 60 be 00 3e 5f b9 1e bd 84 e8 3b 3e af b4 f6 3d
       0.12572622 -0.038751002 0.18350416 0.120461814
000300 dd 54 5c bc 31 1a 0b be 37 aa d4 3d 7a 32 c7 bd
       -0.013447967 -0.1358421 0.103840284 -0.097264245
000310 c3 64 2a be 11 4a 67 be 05 69 c9 bd ea 15 ab 3d
       -0.1664 -0.22586848 -0.09834484 0.08353789
000320 61 c0 82 3d f1 6d 83 be 14 13 9a be c5 2d 3b 3d
       0.063843496 -0.25669816 -0.3009268 0.045697946
000330 16 e5 59 be 8e 29 a0 3c ee 88 4f 3e 2e 8f dd 3e
       -0.21278796 0.019551065 0.20267078 0.432733
000340 30 94 5f 3d 84 a2 37 bc ed 2e b1 3c 5f 54 2e be
       0.054584682 -0.01120818 0.021628821 -0.17024373
000350 ba c7 8a 3d 90 bd 96 bd 8e b2 59 bd b4 5a 75 3e
       0.06776376 -0.07360375 -0.0531488 0.23960382
000360 2f c1 1a 3d d5 45 69 bd d8 13 e6 3c fc 2f 6c 3e
       0.03778189 -0.056951363 0.028085634 0.2306518
000370 ac 15 b8 3d 20 90 d8 bd 1c bb 22 3e 58 c5 0a 3e
       0.089885086 -0.10574365 0.15891689 0.13551843
000380 c4 f9 a7 bd 2e 02 7b bd fd 44 99 3e f0 e7 89 3e
       -0.08201936 -0.061281376 0.29935446 0.26934767
000390 67 c9 49 3e 0a d0 ee 3c 23 64 83 3d d0 61 71 3e
       0.19705735 0.029151935 0.06415584 0.23572469
0003a0 ed 3d 4b be 47 56 0e bd 00 fa 06 be 12 1b 28 3e
       -0.19847842 -0.03475025 -0.13181305 0.16416577
0003b0 b8 d1 f6 bc d6 06 51 3c 4b 79 97 3e 2e 47 3d 3d
       -0.030129299 0.0127579775 0.29584727 0.04621046
0003c0 7e b9 e6 bd 54 94 b2 bd 96 97 10 3d 69 da 00 3d
       -0.112658486 -0.087196976 0.035300814 0.031458292
0003d0 ed 02 8b 3e 01 2c f1 3d 38 c7 55 bd 5c fe 03 3e
       0.2715067 0.11775971 -0.052191943 0.12889999
0003e0 0a b8 b4 bc bd 6d b9 3d 3d 66 20 be 74 20 f9 bd
       -0.022060413 0.09054134 -0.15664001 -0.12164393
0003f0 47 35 dd 3d 23 ab 8e 3d 2f 23 5e bd 40 a7 97 bd
       0.108011775 0.069662355 -0.054232772 -0.07404947

bias_ih_l0 f4 [256]
000000 15 a0 65 be b2 d2 25 3e d3 91 1e 3d 74 40 21 3e
       -0.22424348 0.16193655 0.038713288 0.15747243
000010 10 3b 2f 3d 41 ce 5e bd 13 71 33 3e 63 1b 28 bd
       0.042780936 -0.054395918 0.17523603 -0.041041743
000020 dd 76 d7 3d 02 c5 33 3e bd 4c a7 3d a3 74 0c bb
       0.10520718 0.17555621 0.081689335 -0.0021431826
000030 42 b5 74 3c 5f 09 92 3d f0 b6 0e bd 99 fe 0c 3e
       0.014935793 0.07130694 -0.03484243 0.13768996
000040 e2 1e a2 3d cb 37 c0 3d 05 70 09 3e 75 3c 17 3e
       0.07916047 0.09385642 0.13421638 0.14769156
000050 b8 2c ec 3d 44 5c b0 bd 5a af f9 3d 02 23 11 3d
       0.11531967 -0.08611348 0.12191649 0.035433777
000060 96 4a 8c 3e 08 f2 5d bd ba ff 2a 3e 43 75 3f ba
       0.27400655 -0.054185897 0.16699114 -0.0007303545
000070 be e8 e4 3d 4f 84 dc 3c 52 ce 5d 3e fb b4 5d 3e
       0.111772045 0.026918558 0.21660736 0.2165107
000080 7a 41 8d 3e a5 0a cb 3d ad e0 4c 3c 12 e3 ed 3d
       0.27589017 0.0991414 0.012504739 0.11615576
000090 a1 3e 6a 3e eb 86 cf 3c 78 09 4d be 59 79 2d 3e
       0.22875454 0.025332889 -0.20023143 0.16940822
0000a0 4c 30 11 3d db 81 f3 bc 7e e5 77 3d 02 58 8e 3d
       0.03544645 -0.029725006 0.060521595 0.0695038
0000b0 f4 1e 75 3e ee 0d f5 3d d8 56 91 3d 0a 9f a0 3e
       0.23937589 0.119655475 0.07096642 0.31371337
0000c0 ec a9 72 3e 5b 7d b3 bd c3 05 16 3c 0f 6b 3f bc
       0.23697633 -0.08764144 0.009156647 -0.01168324
0000d0 6d 92 8b 3c 14 1a cc 3d 4e e8 c4 3d 0f 6e 33 3d
       0.017037595 0.099659115 0.09614621 0.043806132
0000e0 d3 98 9d 3e b9 f3 28 3b d9 98 1c 3c fa f5 b2 bc
       0.30780658 0.0025780036 0.009557926 -0.021845806
0000f0 0e d7 ed 3d fb ff fd bd 86 30 2b 3e 7c 77 38 3e
       0.11613284 -0.1240234 0.16717729 0.1801433
000100 ed 4a 19 3e 5a aa 95 bd 33 55 39 3d 7a 14 96 3e
       0.14969988 -0.073078826 0.045247268 0.29312497
000110 ac a1 07 3e df a1 64 3e a6 48 14 3d 43 49 68 3e
       0.13245267 0.22327374 0.036202095 0.22684197
000120 d0 85 18 3e 57 3a 0e be f3 4d f7 3d 88 0f 2a 3e
       0.14894795 -0.13889442 0.120754145 0.16607487
000130 ee f7 72 3d 88 d6 b3 bc ad 46 a3 bc 3d b4 a7 3d
       0.059318475 -0.021952882 -0.019931162 0.081886746
000140 b9 d3 83 3e 58 8c 1a 3e 3b a7 0c 3e 61 94 ae 3d
       0.2574747 0.150926 0.13735668 0.08524395
000150 a2 79 9d 3d 73 7a 4d bc c8 1d 9a 3e 14 df 95 3d
       0.07689215 -0.012541401 0.30100846 0.073179394
000160 35 78 a5 bd 08 96 15 bb 3e 29 1d bd d6 68 44 bd
       -0.08079568 -0.0022825021 -0.03836941 -0.04795154
000170 d6 ca b7 3d 17 57 cc 3d c6 62 b2 bd ef ef 09 3e
       0.08974235 0.099775486 -0.08710246 0.13470434
000180 14 f0 d1 3d 0b 61 f6 3d 66 65 fc 3c 74 bc c8 3d
       0.102508694 0.12030228 0.03081007 0.098015696
000190 2c f9 4e bc d3 5a 53 3d d8 f7 bd bd 3d 58 23 3e
       -0.012632649 0.05160029 -0.09275788 0.15951629
0001a0 35 00 03 be b9 e0 f2 3d 2c d0 ce bd 06 56 c4 bd
       -0.12793048 0.11859269 -0.100982994 -0.0958672
0001b0 d2 28 d8 3d d7 8a 33 3b cd 6b ef 3d 4d 3b 78 3e
       0.10554661 0.0027395987 0.11690483 0.24241371
0001c0 91 da 37 3e 21 52 7c bd 71 99 64 3d a9 6c e8 3d
       0.1795447 -0.06160176 0.055810396 0.1134885
0001d0 5e 80 24 3d 2d 35 53 3d c8 a3 bd 3d 1d 7a 86 3d
       0.040161483 0.051564384 0.092597544 0.0656626
0001e0 2f 11 41 3e f3 72 dd 3d 4c dd a9 ba 08 30 38 3d
       0.18854211 0.108129404 -0.0012959628 0.04496768
0001f0 ee 33 14 3d 22 9e 04 be 19 95 bc bb b3 e9 ae 3e
       0.036182337 -0.12950948 -0.0057550785 0.34162673
000200 2e c8 09 3d ab 81 1c bd 44 6b a3 3d d3 ca 97 3d
       0.03363817 -0.0382096 0.07979444 0.074117325
000210 8a d6 a4 bc d8 b4 a1 3d 72 81 70 3d a9 5f 5d 3c
       -0.020121831 0.07895821 0.0587172 0.013511577
000220 e0 46 6e 3d 34 0e 7c 3d e1 db c0 bd 20 c7 88 3d
       0.05817306 0.061536983 -0.094169386 0.06678605
000230 e6 84 7f bd 14 85 7c ba de 11 a2 bd 41 1f ac bc
       -0.0623826 -0.00096328673 -0.07913564 -0.021010997
000240 70 64 6e 3d e3 92 81 bd 01 58 45 bd 2e 4e 7d 3d
       0.058201253 -0.063268445 -0.04817963 0.061842136
000250 28 db df bd e2 88 02 be 65 2c 41 3d a2 4b db b9
       -0.109304726 -0.12747529 0.04716148 -0.00041827286
000260 e1 67 32 bd 14 7a 98 bd 9d 5f a6 3d 52 f8 c1 bd
       -0.043556098 -0.074451596 0.081237055 -0.094711915
000270 ba 20 b7 bd 3e 40 04 be 0c 69 e4 bd 5c 92 01 3d
       -0.08941789 -0.12915131 -0.111528486 0.03163372
000280 19 28 c6 bc 3b 8c e3 3d be 41 ff bd 1c f6 f0 b9
       -0.024189042 0.11110731 -0.12463711 -0.00045959733
000290 e3 dc 8a bc 68 da a6 bd 0b b9 07 3d 90 79 13 3d
       -0.01695103 -0.081471264 0.033135455 0.036004603
0002a0 c7 7f b2 3d d8 88 93 bd 9c ee 01 3e b3 5d b9 3d
       0.08715778 -0.07203835 0.12688679 0.09051075
0002b0 08 80 0b 3d 80 a7 87 bd 8d 5c e5 bc cf 18 8a bd
       0.034057647 -0.06623745 -0.027998233 -0.06743013
0002c0 d0 d6 db bc c6 72 1a bd fc 95 84 3c 77 e7 ec 3c
       -0.026835829 -0.037707113 0.0161848 0.028918965
0002d0 15 b2 7f bd 1e 49 ac 3d d1 7e 80 3c a3 1b 42 3d
       -0.06242569 0.084123835 0.01568547 0.047389638
0002e0 5a d0 37 3d 0d cf 2e 3d b3 00 46 3e 18 2d ae 3d
       0.044876434 0.042677928 0.19336204 0.08504695
0002f0 f9 85 09 3e a4 ff 0c bd fc 0a 31 bd a0 47 f7 3d
       0.13430013 -0.034423485 -0.043223366 0.12074208
000300 f2 2d ca 3d e3 16 86 3d fa 71 3a 3e a7 91 5e 3e
       0.098720446 0.06547334 0.18207541 0.2173525
000310 1c 92 1d 3e 31 1a c7 3d 73 4b 17 3d fd c1 36 3e
       0.15387768 0.097217925 0.03693719 0.17847438
000320 42 72 c9 bb 4b f9 0d 3e 9f 48 5b bc 51 70 64 3d
       -0.006147654 0.13864629 -0.013384013 0.055771176
000330 f7 50 81 3e e2 bc 2b bd fd 68 e6 3d 8c 15 f9 3d
       0.25257084 -0.04192818 0.11250494 0.12162313
000340 41 98 bc 3c 0b 54 a1 3d a8 da 16 3e a9 c4 20 3d
       0.02302182 0.07877358 0.14731848 0.03925005
000350 67 2a 74 3e 8f 83 8e 3d 16 83 05 3d ec b1 36 3e
       0.238443 0.069586866 0.032595716 0.1784131
000360 e7 f7 af 3e a2 bd 22 3e 36 eb 51 3e fd 03 0e bd
       0.34368822 0.15892652 0.20499882 -0.034671772
000370 45 0f 1a 3d 0f ec b4 3e 35 19 53 3e f9 f3 d5 3d
       0.03761222 0.35336348 0.20615084 0.10446925
000380 a0 fe 48 3e 99 58 72 3c 69 8b 6b 3d cc 0d 19 3c
       0.19628382 0.014791631 0.057506 0.009341668
000390 bc c9 57 3e eb bc e6 3d 70 10 fe 3c cc 29 f3 3d
       0.2107305 0.11266502 0.031013697 0.118732065
0003a0 24 cc 43 3e b5 c4 a4 3d cd f9 38 3e 44 3c 5a 3d
       0.19120842 0.080453314 0.18064041 0.05328013
0003b0 d1 cf 25 3e 84 7d ab 3d 1e b8 e3 3d 4e 53 8f 3e
       0.16192557 0.083735496 0.11119102 0.27993244
0003c0 ed 76 6a 3e 3b f0 0d 3e cc ea 0b 3e 32 fe 05 bd
       0.22896929 0.13861172 0.13663787 -0.032713123
0003d0 54 80 43 3e e9 30 ad 3b d7 6f 63 3e 59 bd 08 bd
       0.19091922 0.0052853716 0.22210632 -0.0333837
0003e0 2a 1b 35 3e 50 2c 27 bd 9c 5c 03 3d 42 57 6f 3c
       0.17686144 -0.040813744 0.03207074 0.014608206
0003f0 40 d5 4e 3c dc b2 03 bc a3 88 5f 3e c9 9f 15 3e
       0.012624085 -0.008038249 0.21829467 0.14611734

bias_hh_l0 f4 [256]
000000 44 dc ad bd 49 32 3a 3e d1 40 1b 3e 8e 1b 97 3d
       -0.08489278 0.18183245 0.15161444 0.073783025
000010 60 de be bc c5 e3 d5 3c 18 24 35 3d 5b a4 31 3e
       -0.023299396 0.026109586 0.044223875 0.17347853
000020 87 f7 d3 3d 36 4d fd 3d 08 0d 1f 3e c5 ae 26 3e
       0.103499465 0.123682424 0.15532315 0.16277607
000030 8e bd e5 3c 62 66 39 3e c6 a9 b0 3c ff 36 bb 3d
       0.028044488 0.18105462 0.02156533 0.09141349
000040 27 93 58 bd 3d 77 7c 3d 12 dc 2c bd 11 0a 7e 3e
       -0.05287471 0.061637152 -0.042202063 0.24808528
000050 07 82 06 3d 35 28 00 3e b7 e7 54 3e bd 37 b7 3d
       0.032838847 0.12515338 0.20791517 0.08946178
000060 4c 6a 9c 3e 61 66 19 bc 17 b9 68 3e b6 78 0b bc
       0.30549848 -0.009362788 0.22726856 -0.008512666
000070 d6 29 1e 3e c9 7c 21 3d d3 e7 14 3e af 0d 51 3e
       0.15445647 0.039425645 0.14541559 0.20415376
000080 bd 61 94 3d f5 e8 93 3c 7a 23 f2 3d 98 0d 49 3d
       0.072452046 0.018055419 0.11823173 0.04908523
000090 3b 5e c9 3d 95 f6 a9 bd 61 7c 95 bd 23 92 de 3d
       0.09832426 -0.08298985 -0.07299114 0.10867717
0000a0 d2 e7 54 bd 51 e1 a0 bc 06 40 0e be 0b c3 85 3d
       -0.051978894 -0.01963869 -0.1389161 0.06531342
0000b0 e9 77 53 3d 8c 95 fa 3d be 1b 03 3e 08 81 ad 3e
       0.051628027 0.12235555 0.12803552 0.33887506
0000c0 cd c2 93 3e f9 69 a9 3d b7 63 97 ba 36 4c 2b 3e
       0.2885956 0.08272166 -0.0011550103 0.16728291
0000d0 77 19 91 3d 94 09 66 3d a6 b3 ec 3d 74 37 eb 3d
       0.07084935 0.05616148 0.11557703 0.11485186
0000e0 3d eb 7e 3e af 4e 15 bd bd 05 16 bd a1 4b 73 3b
       0.24894424 -0.03645199 -0.036626566 0.0037123936
0000f0 5a 86 32 3d 6c 91 af bd 9a b8 4f 3e 90 bd 8d 3e
       0.04358516 -0.08572659 0.20285264 0.27683687
000100 4e 05 3d bd c1 8f 1c 3e 8c ab bc bd 45 3c ad 3e
       -0.046147637 0.15289213 -0.092124075 0.33835045
000110 cf 21 3d 3e ae b8 37 3e 95 0c 26 3b 17 5f a8 3d
       0.18469928 0.17941543 0.002533709 0.08221262
000120 93 fe db 3d 8c ec 62 bd ac 67 a9 3c bb 78 07 3e
       0.107419156 -0.05540137 0.020679317 0.13229649
000130 ef c3 d3 3d ac d5 28 3e 4c 2f 08 3d 7b fa ec 3d
       0.10340106 0.1648776 0.03324823 0.11571213
000140 63 11 9d 3e 71 94 8f bc 1b 64 7d 3d fd a0 0c 3e
       0.30677328 -0.017526837 0.061863046 0.13733287
000150 f1 aa 01 3d d1 39 42 bc 60 78 8a 3e c7 a2 01 3e
       0.031657163 -0.011854605 0.27044964 0.12659751
000160 9d 40 98 bd ed 07 d4 3d 2f 02 20 3d 09 a8 21 3e
       -0.07434199 0.10353074 0.039064582 0.15786757
000170 05 c2 63 3d d1 5a 66 3e db a1 cb bd 95 26 8e 3d
       0.055604953 0.22495581 -0.09942981 0.06940953
000180 95 24 ca 3d 2a ce e6 3d dd 76 08 be 0a 39 56 3d
       0.09870259 0.112697914 -0.13326593 0.05230049
000190 a7 74 9a bb 92 aa ae bc e8 fc bf 3d af b4 e6 bc
       -0.004713613 -0.021321569 0.0937441 -0.028162329
0001a0 17 e1 02 be 1e 35 7f 3d 42 25 16 bd ad 19 81 bc
       -0.12781177 0.062306516 -0.036656626 -0.015759313
0001b0 eb 89 d6 3b 2e ae 90 bd 34 90 b3 3d 22 5d 0f 3e
       0.006547203 -0.07064472 0.08767739 0.14000371
0001c0 cf 15 63 3e 02 5d 8f 3d 3d b0 8f 3d 1f ec ba 3d
       0.22176288 0.07000162 0.07016037 0.09127068
0001d0 14 17 7c 3d 98 09 27 3e 5f 66 f7 3b 32 45 93 3c
       0.061545447 0.16312253 0.0075500454 0.01797733
0001e0 e6 4e a2 3e 36 2f 47 bc 68 46 b8 bc c0 7e 43 3e
       0.3170082 -0.012157252 -0.02249451 0.1909132
0001f0 22 94 41 3d 1c fe ce bd 48 3e a0 3d e6 e7 95 3e
       0.04726041 -0.10107061 0.07824379 0.29278487
000200 15 c2 01 3d 3f 8a dc bd 9f 38 4a bc 1b e2 ed bd
       0.03167923 -0.10768556 -0.012342601 -0.11615392
000210 5a 5c 6e 3d aa a8 b1 bd 8a 07 80 bd cb dd 6c 3d
       0.058193542 -0.08674748 -0.06251438 0.057828706
000220 58 8a f1 bd be 98 a5 bc de 87 7c 3d 15 9d 91 3d
       -0.11793965 -0.020214435 0.06165301 0.07110039
000230 46 b7 06 3d fc fb b4 3d c6 35 42 3d 42 43 90 3d
       0.032889627 0.08837125 0.047414564 0.070440784
000240 1b 12 98 bd 72 17 b4 3d 16 a8 dc bc bf d3 64 3d
       -0.07425328 0.08793534 -0.026935618 0.055866
000250 b6 5a 9c bd 6b 21 04 3d 41 c2 a6 bc 54 f5 8f bc
       -0.07634489 0.032258432 -0.0203563 -0.017573036
000260 ef af 29 3d d4 df c8 3b 79 72 0b 3d 27 53 16 3d
       0.04142755 0.006130198 0.034044717 0.036700394
000270 1c 1b a2 3d 59 ef 53 bd c7 94 c0 3a 56 af 28 bd
       0.07915327 -0.05174193 0.0014692777 -0.04118284
000280 bf 89 0e 3d c4 61 6c bc d4 1c 0a bd da 84 24 bd
       0.034799334 -0.014427606 -0.0337189 -0.04016576
000290 b0 ae 40 bd 06 c7 3f 3d d5 75 c0 bc 45 5c 7f 3d
       -0.047041595 0.046820663 -0.023493687 0.062343854
0002a0 2d 03 55 3d e9 7e 2c bb 88 38 58 3d af 92 6b bd
       0.05200498 -0.0026320762 0.052788287 -0.057512935
0002b0 0c 88 be 3b 2e 9a c8 bb 81 45 29 3c b2 ba d4 3d
       0.005814558 -0.0061218953 0.010331512 0.10387172
0002c0 29 e8 16 bd bb cb 73 3d 5c 74 a0 bd 65 41 23 3d
       -0.0368425 0.059520464 -0.07834694 0.039857287
0002d0 ab 99 ec 3b 4e 0d c6 3c 33 67 83 bc e1 c6 fe 3b
       0.007220467 0.024176266 -0.01604042 0.007775173
0002e0 60 b3 a9 bc d0 47 26 3d 95 1d 02 3d d8 d7 70 3d
       -0.020715415 0.04059583 0.031766493 0.058799595
0002f0 a9 88 cb 3b f8 29 20 bd 92 f6 b2 b7 c6 6b b8 bd
       0.0062113595 -0.039102525 -2.1334072e-05 -0.09004931
000300 69 09 f7 3d b9 60 52 3d bd 0b 24 3e c5 a7 3e 3e
       0.12062342 0.051361773 0.16020103 0.18618686
000310 2e 3b a5 3d db ec 19 3e 44 99 5d 3d 45 de 2e 3e
       0.08067928 0.1503176 0.054101244 0.17076977
000320 da 8d d4 3d 21 3d a3 3d b9 f9 00 3e bc ea 0d 3d
       0.103786185 0.07970644 0.12595262 0.03464769
000330 52 39 b3 3e 4a 85 25 3e fb 55 a6 bd 9c 09 12 3e
       0.3500467 0.16164127 -0.08121868 0.14261478
000340 9a b6 e7 3d b6 7c be 3d 6b 0d 39 bd 38 ff 14 3d
       0.11314125 0.093011305 -0.045178812 0.036376208
000350 34 04 58 3e 39 a4 b6 3c c6 eb 6c bc e6 f0 eb 3d
       0.21095353 0.022295104 -0.01446051 0.11520557
000360 a4 78 ba 3e 12 15 90 3d 9f 49 ea 3b 23 b8 58 bd
       0.36420166 0.07035269 0.0071498896 -0.05290998
000370 df 7d 69 bd 2d fe c1 3e f7 e4 ca 3e 58 4e 58 3d
       -0.057004806 0.37889233 0.3962781 0.05280909
000380 9a 44 15 3e d8 7d c2 3d 8d eb 47 3e 42 c9 c0 bc
       0.1457695 0.09496659 0.19523449 -0.023533467
000390 ca 76 ab 3c 90 f7 24 3d 2b 19 01 3d 69 e3 77 3e
       0.020930666 0.040275156 0.031518143 0.24207844
0003a0 b1 b2 62 3e 2c 96 3b 3e b0 f7 23 3e 83 54 95 bc
       0.22138478 0.18319005 0.16012454 -0.018228775
0003b0 2e 32 7d 3e f0 d7 67 3e e1 64 7b 3e f0 19 5a 3e
       0.24726173 0.22640967 0.24550201 0.21298957
0003c0 56 e7 8f 3e 95 62 91 bd 1e 57 36 3e 7d cf 81 bd
       0.28106183 -0.07098881 0.1780667 -0.063384034
0003d0 c8 da dc 3d e0 a0 10 3e e0 88 14 3e e1 2d a2 3d
       0.10783917 0.14123869 0.14505339 0.07918907
0003e0 eb 51 63 3d 63 b4 09 3d 66 2c 9e 3d 47 32 2a 3c
       0.055498045 0.033619296 0.07723312 0.010387964
0003f0 f2 2b 16 3d fb 4b ab bd b4 77 3e 3e ad dc c0 3d
       0.036663003 -0.083641015 0.1860035 0.094170906

weight f4 [32, 64]
000000 82 25 b7 3d 50 77 7f 3e 64 bc 4e 3e 50 7f 1b 3c
       0.08942701 0.24947858 0.20189053 0.009490803
000010 bb b2 f6 bc 3c c2 2c 3e 0f 8a 47 be 48 4e 68 bd
       -0.030114522 0.1687097 -0.19486259 -0.05671528
000020 90 5c 09 3d 80 c3 e1 3d d0 a3 70 3e c1 7f d1 bc
       0.03353554 0.11023617 0.2349999 -0.025573613
000030 f0 f3 b7 bc 3d e9 86 3d 00 77 a5 bd 2b 4b fc bc
       -0.022455186 0.065874554 -0.08079338 -0.030797562
000040 ed 39 4d be 2d 89 40 be 26 48 cd bd 89 f7 56 3d
       -0.20041628 -0.18802328 -0.10023527 0.05248216
000050 1d 92 c1 3d 84 70 00 be 20 ac 8f be 7e cc 05 3e
       0.09451697 -0.12542921 -0.28061008 0.13066289
000060 cf 99 c0 3d 03 aa 56 be 5d fc 97 bc cf 86 13 be
       0.09404337 -0.20963292 -0.018552953 -0.14406894
000070 0e 46 19 be e2 91 ad bd 26 2c 67 3d fd 4a 17 be
       -0.1496813 -0.084750906 0.056438588 -0.147747
000080 ac f1 57 be 8c ea 99 3c 24 f6 ad 3d 4a 64 0f 3e
       -0.21088284 0.018788598 0.08494213 0.14003101
000090 3c 25 7c be 0c 14 33 be 54 51 00 3d c2 44 a6 ba
       -0.24623579 -0.17488116 0.03132756 -0.0012685286
0000a0 e4 e8 2f 3d a8 d7 37 3c 71 47 f7 3d 9e 71 0c be
       0.04294671 0.01122085 0.12074173 -0.13715217
0000b0 38 b9 99 3d ad bb 30 bd e7 f9 31 bd 38 4a a9 3c
       0.07506031 -0.04314773 -0.043451216 0.020665273
0000c0 2f ad cc bd 10 df 23 3e 72 e6 33 be 4f d8 29 bd
       -0.0999397 0.1600306 -0.17568377 -0.041466054
0000d0 9b 76 11 bd 1b 3c 07 bd 4c ff 7f 3d ec a5 87 3d
       -0.0355135 -0.033016305 0.06249933 0.06623444
0000e0 ac 85 50 be 9c b6 43 3d 54 87 d1 be 8f 51 9f 3d
       -0.20363492 0.04778157 -0.4092356 0.07779228
0000f0 f1 a0 82 3d ca ac 22 3e e9 5e d0 bb c3 0b af be
       0.063783534 0.15886226 -0.0063589704 -0.3418866
000100 bb ba 88 be 88 5b 63 bd 9c 4a 2a 3e db c0 19 be
       -0.26704964 -0.055507213 0.16630024 -0.15014975
000110 ed b8 8f 3d 72 9f 4e be ad 84 cd bd 28 9c 07 be
       0.07017694 -0.20178011 -0.100350715 -0.13243163
000120 22 60 97 3e 35 43 b1 bd 54 a0 ec bd c0 92 4a 3e
       0.2956553 -0.08655397 -0.11554018 0.19782543
000130 98 2e e0 3d 9c 20 b4 be 68 cf f4 3d cd 19 06 3e
       0.10946387 -0.3518113 0.11953622 0.1309578
000140 14 7e c9 bd 3e 91 3b be 1f 0f f2 bd 2a ca a4 be
       -0.098385006 -0.18317124 -0.1181929 -0.3218549
000150 58 c7 8d 3e 87 46 54 3e 69 73 d7 be ee 6d 00 3d
       0.2769115 0.20730029 -0.42080238 0.031354837
000160 65 cd 15 3e 59 08 49 3d cf ce b8 3d 7a 45 ca 3d
       0.14629133 0.049080227 0.090238206 0.09876533
000170 72 2d ef 3d 77 f6 4d bd 51 eb 89 3c b0 ab 64 bd
       0.1167859 -0.050283875 0.01683584 -0.055827796
000180 b1 93 bb 3c 3a 99 24 3d e4 1b 30 3e 57 ec 4e 3e
       0.022897573 0.04018519 0.1719814 0.20207344
000190 48 ea 6d 3e a3 25 31 3e 2c d4 a9 be ad fb 46 3d
       0.23233902 0.17299514 -0.33169687 0.04857986
0001a0 22 f4 67 3d 2a f9 c9 3d 24 13 91 be d2 c4 39 be
       0.056629308 0.098619774 -0.28334916 -0.18141487
0001b0 23 23 1c be be 88 cb 3d 77 b1 02 3e eb 41 1e 3c
       -0.15247779 0.09938191 0.1276301 0.009659271
0001c0 39 95 1b be 4e 0a 86 3d a8 7f 12 be ac 17 62 3d
       -0.15193643 0.06544934 -0.1430651 0.055198357
0001d0 d1 1f b5 3e 5e 73 72 3d c1 dc b0 bc 0d 96 4c be
       0.35375836 0.059192054 -0.021589639 -0.19979115
0001e0 b6 a0 88 3e d8 89 81 be 40 60 a1 3e 92 db 68 be
       0.26685113 -0.2530048 0.31518745 -0.2274001
0001f0 3c 70 01 3c c6 a0 94 3b 03 78 90 be a0 28 71 be
       0.007900294 0.0045357672 -0.28216562 -0.23550653
000200 37 31 dd 3d 60 22 b2 bd c8 75 18 3d d7 04 11 bd
       0.108004026 -0.08697963 0.0372217 -0.035405006
000210 1c 15 17 be 6d 5d 5c be 01 d8 44 be f2 96 2e 3e
       -0.14754146 -0.21520014 -0.19223024 0.17049769
000220 22 16 c5 bc 44 a1 7d 3d 22 a6 ad be 8a c2 34 3e
       -0.024058405 0.061921373 -0.33915812 0.17652336
000230 3f fc a7 3d bf 52 38 be 8b 86 a4 3e 0b 5a 43 3e
       0.08202409 -0.18000315 0.32133898 0.19077317
000240 55 16 76 3e 4f 34 4b bd 52 c7 50 3d 11 54 ba bd
       0.24031956 -0.049610432 0.050971337 -0.09098066
000250 81 05 85 bc ea b0 68 3e 60 d9 61 3e b7 ab 02 3e
       -0.016237976 0.22723737 0.22055578 0.12760817
000260 1f 2b 39 3e 28 6d af 3e 39 55 60 bd 74 a4 3b 3e
       0.18082856 0.34262967 -0.054768775 0.18324453
000270 40 5d 6c 3d 73 3d 4b 3e 8c 50 a2 be dc 55 ea 3c
       0.057706118 0.1984766 -0.31702077 0.028605394
000280 25 75 c6 bd 47 af 75 be 87 1b 55 3d 2b 2a 52 3e
       -0.09690312 -0.23992644 0.052028205 0.20523898
000290 36 f9 c0 3e 4f fe e6 3d 94 67 bd 3c 4d 8c fb 3d
       0.37690133 0.11278974 0.023120679 0.122826196
0002a0 25 78 20 be b8 76 f1 3e ff 8c 42 be eb fa 61 3e
       -0.15670832 0.47160888 -0.18999098 0.22068374
0002b0 9a 3c 27 be a7 b1 2c 3e f3 b4 c8 3d 80 cd 0c 3d
       -0.16331711 0.16864644 0.09800138 0.034375668
0002c0 8a 3a d1 3d 60 46 9d bd 88 c5 8b 3d 59 2e 30 3e
       0.102162436 -0.076794386 0.068247855 0.1720518
0002d0 93 6c 46 3c 3c 0c ab 3c 23 3b 96 3c bf cb 79 3c
       0.012110847 0.020879857 0.018338745 0.015246331
0002e0 4d 04 04 3e cc f7 67 3d 8d e1 97 bd 6a b9 a9 be
       0.12892266 0.056632802 -0.07416067 -0.33149272
0002f0 bb db ab be 7e 28 53 3e 38 e2 b9 bd 5f ce 9a be
       -0.3356608 0.20620915 -0.09076351 -0.30235574
000300 db 94 30 3e 8e 61 a7 3d 78 2f a0 3d d2 c0 9a 3d
       0.17244284 0.08172904 0.07821554 0.07556309
000310 08 76 06 3d fb 7c db 3d 66 89 14 be 9b 61 28 3e
       0.032827407 0.107171975 -0.14505538 0.16443484
000320 dc 0e 2f 3d a3 90 59 be 67 39 8a 3e 78 c3 06 3d
       0.04273878 -0.21246581 0.2699692 0.032901257
000330 5c d7 08 be 81 af a0 3d fa 57 ae 3d be 5e 81 bd
       -0.13363403 0.07845975 0.08512874 -0.06316899
000340 3a 7d 28 be 67 d3 4d be a4 c3 d7 bc db ba 1f bd
       -0.1645402 -0.20100175 -0.026338406 -0.03899656
000350 1a c3 4d 3e b0 78 5f 3d 1d 32 63 be 83 7b 01 3e
       0.20093957 0.054558456 -0.22187085 0.12644772
000360 e7 d1 3b 3d 51 5f 96 bd 5b ba d7 3a a8 37 10 bc
       0.045854475 -0.07342399 0.0016458736 -0.008802332
000370 65 70 4f 3d 62 0f 18 be d5 81 47 3e f8 86 c8 bb
       0.050644297 -0.14849618 0.1948312 -0.006119605
000380 ae 5e e2 be 8e 8a ac 3c 6c f8 bb 3d 54 a8 1e 3d
       -0.4421286 0.021062162 0.09178242 0.03873475
000390 dd bc 12 bd d9 98 6b bd 89 e5 7c 3e 49 ac d1 3d
       -0.035824645 -0.057518814 0.24696936 0.10237939
0003a0 64 1e 8d bd cf 41 96 bd d7 1d da 3c a7 c8 9c bd
       -0.06890562 -0.07336771 0.026625557 -0.07655459
0003b0 8e 6c eb bd 1e 64 d4 bd a2 4e f8 bd c0 2c ca bc
       -0.114953145 -0.10370658 -0.12124373 -0.024679542
0003c0 12 98 a3 bc da 82 6a bc 5d 71 27 be 9a 24 8c bd
       -0.019969974 -0.014313424 -0.16351838 -0.06842919
0003d0 c5 59 80 3c 9f 5c b9 bd d2 74 82 3d 8a b7 fe 3c
       0.015667805 -0.09050869 0.06369938 0.031093378
0003e0 2c 3b 1a be ed 09 be 3d 1e f9 d1 be 74 19 d8 3d
       -0.15061635 0.09279237 -0.41010374 0.1055173
0003f0 53 56 21 bc b4 ab c7 3d c3 0e 92 3c 35 1c 8d be
       -0.009847241 0.09749547 0.017829305 -0.27560583

bias f4 [32]
000000 21 fa 37 bd 6e f6 b0 3c c1 10 6a bd a5 4e 86 bc
       -0.044916276 0.021601882 -0.057144884 -0.016394923
000010 eb 23 f7 3d 22 3e 7b 3d 1f cd 00 3e d2 67 4a be
       0.12067398 0.06133855 0.12578247 -0.19766167
000020 5a d4 e3 3c 34 63 01 3b 71 71 d7 bc ea 52 00 3c
       0.027811218 0.0019742968 -0.02629921 0.007832268
000030 23 b9 ee 3c 69 0c 0d 3c 29 f6 ad bc f5 f0 14 3d
       0.029141014 0.008608916 -0.021235542 0.036362607
000040 63 03 2d bd 88 71 48 3b aa fa ff bb a9 4b 77 3d
       -0.042239558 0.0030585248 -0.007811864 0.06037489
000050 72 ca 1e 3c 78 fd 3b bd 96 d6 4a 3c 73 88 06 3d
       0.009691821 -0.045896024 0.012380263 0.032844972
000060 ba be 5f 3c 19 9b 89 bc 1f ce 31 3c 09 42 a5 3c
       0.013656313 -0.01679759 0.010852366 0.02017309
000070 5f a4 a1 bc df 22 0b 3d ce 10 c7 3c b7 48 77 bb
       -0.019731699 0.033968803 0.024300005 -0.003773255

weight f4 [2, 32]
000000 48 f9 3f be d1 05 1f 3f 61 cf f0 3e d2 ae a2 bd
       -0.18747437 0.6211825 0.47033218 -0.079435006
000010 50 49 17 3f bd bf f1 bd 8f a2 04 3f 52 b7 00 bf
       0.5909624 -0.11804149 0.51810545 -0.50279725
000020 ab f9 09 be 83 b3 e7 bd 90 60 00 3f 4e 3a 20 bd
       -0.13474147 -0.11313536 0.5014734 -0.039118104
000030 03 85 85 be 4a 83 8e be f7 95 26 3f d3 50 16 3f
       -0.26078042 -0.2783454 0.6507258 0.5871708
000040 04 fa 4c be d7 67 c1 3e 73 e7 5f 3f ba 18 31 3f
       -0.20017248 0.37774536 0.8746254 0.69178355
000050 4a be 1c 3f b1 d4 53 bd 8d 94 2e 3f 87 97 1a be
       0.6122786 -0.05171651 0.6819542 -0.15096866
000060 7b 67 29 be 44 20 8b 3f 0b de 1c 3f 7a f3 15 3f
       -0.16543381 1.0869222 0.6127631 0.5857464
000070 2b 09 51 be e8 6e 3d 3f 77 5a ae bd f6 fa a8 bd
       -0.20413654 0.73997355 -0.085133485 -0.08250992
000080 c8 b5 8a 3e fa 77 22 bf 29 1b ef be a6 0d 60 3e
       0.27091813 -0.6346432 -0.4670041 0.21880206
000090 8b cb c9 be 2b 92 94 3e 28 72 f0 be 5b 0b af 3e
       -0.39413103 0.29017767 -0.46962094 0.3418835
0000a0 43 47 4b 3e 00 ee 4a 3e 05 a1 bc be f8 c9 8e 3e
       0.19851403 0.19817352 -0.36841598 0.27888465
0000b0 54 52 12 3e 36 10 46 3e 9e 16 1e bf 44 1a 13 bf
       0.14289218 0.19342121 -0.6175326 -0.57461953
0000c0 a0 a2 87 3e 13 e9 fc be c4 48 27 bf 49 a1 19 bf
       0.2649126 -0.49396572 -0.65345407 -0.60011727
0000d0 cf 7f 0b bf aa 59 47 3e a7 e4 52 bf 2c 9f 85 3e
       -0.54491895 0.19467798 -0.82380146 0.26098
0000e0 4d 2a 92 3e 45 a7 57 bf 5e ee 25 bf aa b6 e9 be
       0.28547898 -0.8423961 -0.64816844 -0.45647174
0000f0 f3 c9 93 3e c9 81 f7 be a6 3c 8e 3e da 80 8e 3e
       0.28865013 -0.48341206 0.27780646 0.2783268

bias f4 [2]
000000 4b c9 8f be da 4a d6 3e
       -0.28083262 0.41853982
